data.pth (torch, 6975 bytes, 6 tensors)

l1.weight f4 [8, 83]
00000000: ccec 14be 65e7 493f a099 01be a582 383f
00000010: eebd 183f 224a 17bf 2bd8 f73e a7d7 fe3d
00000020: 0c75 08bf 48de 48bf f7a0 03bf f6b3 ee3d
00000030: 32fd 0bbf f1eb b93e d7a4 afbe 35af c6bd
00000040: 538c c5be 47c0 593f 4320 133e b4c5 b13e
00000050: ac34 c3be 7a82 403e da0b 363e 9c09 413f
00000060: 3cba 96bf 6a32 4dbd 8838 183e 1758 ba3e
00000070: 228c a1be a736 a43e 8074 2b3e fbf4 11be
00000080: 51ba 393e 3246 f0be ba16 fabd fc33 263f
00000090: e45b 723e ecf4 6c3e e87c da3e 9439 843e
000000a0: ea4b 4a3e 63bb ffbd c200 aabe fb35 253d
000000b0: 2404 003d f1eb 4ebe 581d 39be 7c0d 803f
000000c0: 96ef 62be 0f97 503e ce78 aa3b e027 853f
000000d0: 306a 043f 8e28 fb3d 2e68 5e3e ac83 15bf
000000e0: 3491 30bf b2aa d63d 5182 b13b f397 c53e
000000f0: 68e7 a33e f3aa dcbe 7ff8 d13c 1d22 683f
00000100: f4a6 893f 1b51 a63e f213 ea3e 4e1c 5d3e
00000110: 5239 11bf d146 bd3e 7999 fbbd ff13 193e
00000120: 88d9 67be 6f71 773e c6a6 c83e e284 da3e
00000130: d1a5 903e 5eee 6b3f 0e8c 243e 47f5 1fbc
00000140: 248e 89bc ea92 38bf d039 b7be c90b 49be
00000150: 99c1 f2be 913e 213f c29f f9bd 761d 533e
00000160: c883 233e b0e5 9fbe 421d ac3e 3477 b33e
00000170: f71a ecbe 3d23 333e a3d4 883c 31f1 27bf
00000180: 8952 79be 7723 fcbe 5465 793e a6d6 383f
00000190: ac60 6ebf 83ac ea3e 97be 95be fe14 6abe
000001a0: 22f2 3a3f 69db 513d 8117 41be 9439 f03e
000001b0: de95 203f 4444 c13e 4aa5 eabd 1f55 a5be
000001c0: c3a2 74be 368c 0f3f 658e 1b3f b5d6 77be
000001d0: f303 1d3e 6472 e33e 0fbf a03d b99e f0be
000001e0: 868b f0be a7e4 273f beb2 e33e 7937 033d
000001f0: b6b4 663e d673 febc 698b 253f 1ef2 b13e
00000200: ff20 373f 2069 153f 6e10 ac3e 8785 2c3f
00000210: 8b9f f0be b8d1 d43e 9cb7 6cbe 381d 2abf
00000220: a15a 69be e1dd f0be cdcd 2b3e 06c1 f73e
00000230: 98a1 393f 4971 293d 1c0f 05bf 9b74 b2be
00000240: 0b23 f4be 5c5a bdbe c4d6 583e 56da 4e3f
00000250: 1beb 74be da02 a4be 395e 073f d5b8 1c3f
00000260: 164a 44be a367 f9bd 0a29 3e3f 061c b53e
00000270: 4858 8abe 5713 44bf ea0c 6fbe 275d 323f
00000280: 7564 623e 998d 273f b4e4 6d3e 7a17 9d3e
00000290: e3ba 19bf 55d3 793e d409 0fbf 15d5 9a3f
000002a0: bae8 70be cc66 00be c7ff 88be ef62 d53e
000002b0: 8f39 09be eb57 35be 8ad7 17bf d479 e3be
000002c0: 2f5f ab3e 3a8b de3e 0e60 c03e adbe 743e
000002d0: 667b 153f 085d 0e3e 8fc8 073f f487 dd3e
000002e0: 02d9 79be ce2e f73e 84cc 41bf 3d93 fcbe
000002f0: c1b4 c63e 0be0 8c3e ae84 63bf 444a 033e
00000300: 0db1 98be b9fb b8bb 0db3 653e cbda 1fbe
00000310: fb13 94be 2fda 28bf 25a0 403e 1f2b d23e
00000320: 156b 7e3d 7b92 8c3e 3503 b43e bcaf 813e
00000330: 4239 56be 3f11 d33e 4d55 133f 5bc4 0f3e
00000340: ec80 99be c474 d3be 7a37 203f c45c 183e
00000350: d1f0 a63d 4874 e2be c826 133d 9fb3 723e
00000360: 9d15 933d 4e05 ca3e 51c4 493f 779e 033e
00000370: cff8 783e 075c cf3e 3342 4c3f e022 a53c
00000380: 42c5 8fbe 29c8 9dbe 12ce 983e 83e2 083f
00000390: 2984 d2be f2f2 f7be 0ae2 b13e c162 593e
000003a0: fea6 4bbe 8a27 13bf 38be 2e3f 2ff3 763e
000003b0: 6247 a43e 056f b7bd b3db 17bf 541d c13e
000003c0: 0456 3b3f dd91 cb3e e1a6 bdbe 09cb 953e
000003d0: be86 06bf b62c 8dbd c537 5a3e 6d8c 6abe
000003e0: 1995 483d 95ea e03e f5ec 46bf ee51 90be
000003f0: 16f6 823d e870 c5be b763 a8bd 1ed5 b03e
-0.14543456 0.78868705 -0.1265626 0.7207435 0.5966481 -0.5909749 0.4840711 0.12443476
-0.533036 -0.78464174 -0.5141749 0.116554186 -0.5468322 0.36312822 -0.3430545 -0.09701387
-0.3858362 0.85059017 0.14367776 0.34721148 -0.38126123 0.18799773 0.17777959 0.7540529
-1.1775584 -0.050096907 0.14865315 0.36395332 -0.31552225 0.32072946 0.1674366 -0.14253609
0.1813748 -0.46928555 -0.12211366 0.6492307 0.23667866 0.23140305 0.4267342 0.2582518
0.19755521 -0.12486913 -0.33203703 0.040334683 0.03125395 -0.20207192 -0.180776 1.0004115
-0.22161707 0.20370124 0.0052023893 1.0402794 0.5172453 0.122635946 0.21719429 -0.5840404
-0.6897156 0.10481776 0.0054171463 0.3859249 0.32012486 -0.43099174 0.025631187 0.9067705
1.0754075 0.32483754 0.45718342 0.21592829 -0.5672809 0.3696809 -0.12285132 0.14949034
-0.22641575 0.24164365 0.39189738 0.42679507 0.28251508 0.92160594 0.16069052 -0.0097630685
-0.01679141 -0.72099173 -0.35786295 -0.19633402 -0.47413328 0.62986094 -0.121886745 0.20616707
0.1596824 -0.31229925 0.33616072 0.35051882 -0.46114323 0.17493911 0.016702956 -0.65602404
-0.24347891 -0.49245808 0.2435506 0.7220253 -0.9311626 0.4583474 -0.2924697 -0.2285957
0.73025715 0.051234636 -0.18856622 0.4691893 0.6272868 0.37747395 -0.11457308 -0.32291505
-0.23890214 0.5607332 0.6076415 -0.24202998 0.15333538 0.4442321 0.078489415 -0.46996096
-0.46981448 0.6558327 0.44472307 0.032035325 0.22529873 -0.031061094 0.6466585 0.34755033
0.71534723 0.58363533 0.33606285 0.67391247 -0.46996722 0.41566253 -0.23116916 -0.66450834
-0.22788478 -0.4704428 0.16777726 0.48389453 0.725122 0.041367803 -0.5197618 -0.34854588
-0.47682986 -0.36983 0.21175677 0.80801904 -0.2391781 -0.32033426 0.5287815 0.6121953
-0.19168887 -0.1217797 0.7428137 0.35372943 -0.27020478 -0.7659201 -0.2334477 0.6967339
0.22108634 0.65450436 0.23231775 0.30681974 -0.6005079 0.24397023 -0.5587437 1.2096277
-0.23526278 -0.12539214 -0.26757643 0.41677043 -0.13400863 -0.1770932 -0.5931326 -0.44428885
0.33471057 0.43465596 0.37573284 0.23900862 0.58391416 0.13902676 0.53040403 0.43267787
-0.24399188 0.48277897 -0.7570269 -0.49331084 0.3880978 0.2751468 -0.8887433 0.12821299
-0.2982258 -0.005645242 0.22431584 -0.15610807 -0.28921494 -0.6595792 0.1881109 0.41048524
0.06211384 0.27455506 0.35158697 0.25329387 -0.2092028 0.41224095 0.57552034 0.14039747
-0.29981172 -0.41300023 0.6258465 0.14879137 0.08151401 -0.4422934 0.035925657 0.23701333
0.07181857 0.39457172 0.7881518 0.12853418 0.24313663 0.404999 0.7978851 0.020158231
-0.28080183 -0.30816773 0.2984472 0.5347063 -0.41116455 -0.4842754 0.34742767 0.21229078
-0.19887921 -0.57482207 0.68259 0.24116205 0.3208571 -0.08956722 -0.5931961 0.37717688
0.73178124 0.39759722 -0.3704138 0.29256466 -0.5254935 -0.068932936 0.21310337 -0.2290513
0.048970316 0.43928972 -0.7770532 -0.28187507 0.063945934 -0.38562703 -0.08222144 0.34537596

l1.bias f4 [8]
00000000: 724c 173f 4f8c f03e 05ce 583f 89d7 d63e
00000010: 65e4 013f 186e 9a3f 6271 7e3f fb4c 2a3f
0.5910102 0.46982047 0.8468936 0.41961315 0.5073913 1.2064848 0.9939176 0.6652371

l2.weight f4 [8, 8]
00000000: 801e 67bf 5184 5a3f 0068 3d3e 289a 2d3f
00000010: 366e 77bf 74c0 5dbe 2215 9f3f 3fd5 893f
00000020: 9b9d 8f3f bdd1 bebf 1cd7 dd3f 1465 41bf
00000030: 4fc1 ae3f a9af 0540 02db 273f 3ff5 943f
00000040: 325d a63f 3584 7f3f af9f 453f d3ec 863f
00000050: 485e 223e 7102 943d 7af7 cdbf b649 743f
00000060: 9475 38bf 36ed 03bf c302 f63d 8ba9 933f
00000070: 3451 ca3f 1977 2abf 01be 1d3f f789 0a3f
00000080: aaf6 273e f94f 2ebe 42d9 6abe 2c3e c0bd
00000090: 2cae f7bd 5d67 b1be 1c6b 6fbe 63ea 7cbe
000000a0: 9e1d 6fbe 266e 193e 83ab 803e 9832 babd
000000b0: 907c be3d e2d0 39be ed8c 9abe 1423 8dbe
000000c0: d226 33bf c0f0 9a3f 12af 343e 7156 733f
000000d0: 3355 25bf 2c54 bc3e 6600 973d e65a 743f
000000e0: 18a8 9f3f 86b0 763f 3c5e b0bf 32ab c93f
000000f0: 01e2 d8bd 8b37 f8be 4288 9a3f 2a7b cebe
-0.90280914 0.8535815 0.18496704 0.6781335 -0.96652544 -0.21655446 1.2428324 1.0768203
1.1219972 -1.4907757 1.7331271 -0.7554486 1.3652743 2.0888464 0.65568554 1.1637343
1.2997191 0.99811107 0.7719678 1.0541023 0.15856278 0.07227028 -1.6091149 0.95424974
-0.7205441 -0.5153383 0.120122455 1.1536115 1.5806031 -0.6658798 0.6161805 0.5411677
0.16402689 -0.17022695 -0.2293444 -0.09386858 -0.120937675 -0.34649172 -0.23380703 -0.24698786
-0.23351142 0.14983425 0.25130853 -0.09091681 0.09301102 -0.18146089 -0.30185643 -0.27565825
-0.6998111 1.2104721 0.17644909 0.95053774 -0.6458313 0.36782968 0.07373123 0.954512
1.2473173 0.96363103 -1.3778758 1.575537 -0.10589982 -0.48479876 1.2072833 -0.40328342

l2.bias f4 [8]
00000000: cd02 943e a653 5e3f 9e9e 27bf 0166 29bf
00000010: 17b5 9fbe 3167 18be 8da7 be3c 23b4 a53e
0.28908387 0.8684639 -0.65476406 -0.6617127 -0.31192848 -0.14883114 0.023273254 0.32363996

l3.weight f4 [17, 8]
00000000: 4038 dcbe 2619 d5be 9284 123d f7ad 8bbd
00000010: d4e8 8cbd d627 a8be 6a92 e0bd 32ca f8bc
00000020: 355e 84bf 7e1e b63e 3ff7 d7bf 62c6 723c
00000030: 22f1 2bbe d8c1 25be ce2e e0bf a8a0 45be
00000040: f37b b2bf 2f60 0e3f 02f5 283f 597e b5bf
00000050: 0d51 8cbe b0e4 a5be c1d5 74bf c3a6 e3bf
00000060: 0c54 173f f04a d6bf 25b9 c7bf e744 0bc0
00000070: 1bfd 73be cec3 96be e39d b03e db81 ef3e
00000080: 483f b3bd 921f cfbd b1ae a4bf 0450 163f
00000090: f3a2 a3be 9431 7cbe 3957 83be 6633 31bf
000000a0: 4458 bbbf c0ef e93d 3fc6 013f 561e 833e
000000b0: a00b 98bd 128a 173e e854 e6be e6c6 9cbf
000000c0: 19b5 b83e 4aa9 38bd 9025 07c0 0b44 c2bf
000000d0: a62d 8bbe 1136 953e efbc 37bf d67d 993e
000000e0: cd76 3e3f 2641 e73e 9080 bdbf 7c51 a8bf
000000f0: fd9a 26be 034f 8f3e 5cc3 303f 2cce cbbf
00000100: 6ebc 9e3e 08b1 b0bf 9e22 bbbf 101e e03e
00000110: 3372 99be 4d5d 01be 4458 37be d95d 163e
00000120: 1e11 c5be 9bb7 7f3e df42 c3be ea03 bb3e
00000130: d33d 863e 47c5 4fbe 240c a2be 4b02 07c0
00000140: 915a 58be d3d7 8bbe 0282 be3e 50e2 9dbd
00000150: bd23 9bbe e882 cfbd 6b12 c33e b9ab c1bf
00000160: e982 ecbf 4357 a93f 70f9 fbbf 42dc e8bf
00000170: 80a8 333c c6bf 23be 98e7 e0bf 3e8b ebbf
00000180: 3fda 29be 88e2 bfbf 8ab3 033f deef ddbf
00000190: 9a41 92be d5ba 39be c3d4 113f 7a87 85bd
000001a0: 6aba f1bf 76cc f7be 5da4 353f 8b37 95bf
000001b0: 5ccd 5bbe b435 bb3d 33fd e2bf 00f8 4d3e
000001c0: 96d8 a3bf 19b2 c23e 9c26 9fbe 6b74 03c0
000001d0: ba5c 53be 3808 3cbd 523e f7be bcc6 483c
000001e0: 6652 71bc f132 d4be 2a4a bcbf 0bfc 863e
000001f0: f802 96be 612c 86be b68a 15c0 280a 8a3e
00000200: e1fe 123f 2353 9cbf c06e bcbe c5a9 a5be
00000210: c22b 4c3e 99f1 89be e5d8 653e ac5b e4be
-0.43011665 -0.4162075 0.03577096 -0.068202905 -0.06880346 -0.32842892 -0.10965426 -0.030369852
-1.034125 0.3557014 -1.6872329 0.014817806 -0.16791204 -0.16187227 -1.7514284 -0.19299567
-1.3944076 0.55615515 0.6599885 -1.4179183 -0.27405587 -0.32401037 -0.9563866 -1.7785267
0.5911262 -1.6741619 -1.5603377 -2.1760805 -0.23827021 -0.29446262 0.34495458 0.4677876
-0.08752304 -0.101134434 -1.2865812 0.58715844 -0.31960258 -0.24628288 -0.25652483 -0.6921905
-1.4636312 0.11422682 0.50693125 0.25609082 -0.07424092 0.14798763 -0.44986653 -1.2248199
0.36075667 -0.04508332 -2.1116676 -1.5177015 -0.27183264 0.29142812 -0.71772665 0.29978818
0.74400026 0.45166892 -1.4804859 -1.3149867 -0.16270061 0.2798997 0.69048095 -1.5922294
0.31003135 -1.3804026 -1.4619939 0.43772936 -0.2996994 -0.12633248 -0.17904764 0.14684238
-0.38489622 0.24972384 -0.38136956 0.36526424 0.26219043 -0.20290099 -0.31649888 -2.109515
-0.21128298 -0.27313098 0.37208563 -0.07709181 -0.30300704 -0.1013239 0.3809999 -1.513053
-1.8477451 1.3229755 -1.9685497 -1.8192217 0.0109654665 -0.15991125 -1.7570677 -1.8401868
-0.1658716 -1.4991007 0.5144583 -1.7338827 -0.28565675 -0.18137677 0.56965274 -0.06519981
-1.8885014 -0.4839818 0.70953923 -1.1657575 -0.21465057 0.091411024 -1.773352 0.20114136
-1.2800472 0.38026503 -0.31084144 -2.0539806 -0.20640841 -0.045906276 -0.48289734 0.012254413
-0.014729118 -0.41445115 -1.4710133 0.2636417 -0.2929914 -0.26205733 -2.3365912 0.26960874
0.57420164 -1.2212871 -0.36803246 -0.32356086 0.19938567 -0.26942137 0.2244602 -0.4460119

l3.bias f4 [17]
00000000: b381 9abe 57ce 4abe 6ce4 05be eb79 773e
00000010: 715e a0be 5ae8 04be e47c a1be d41d 0e3e
00000020: 9976 17be e06e eabe 439f e2be 2024 673f
00000030: 0bee 2fbe 7dfb cf3e 8b98 0f3e e2d5 bebe
00000040: 0d66 b8be
-0.30177078 -0.19805275 -0.13075417 0.24167602 -0.31322053 -0.1297926 -0.31540596 0.13878566
-0.14791335 -0.45787716 -0.44262132 0.902895 -0.1718065 0.40621558 0.14023034 -0.37272555
-0.3601536
