data.pth (torch, 7167 bytes, 6 tensors)

l1.weight f4 [10, 71]
0	0xbcba6a26	-0.022755694
1	0xbda687bf	-0.0813136
2	0x3f0eb1ac	0.55739856
3	0xbe587761	-0.2113929
4	0x3ef5e7b8	0.4802835
5	0x3ea16565	0.3152267
6	0xbef81137	-0.48450634
7	0x3d85f4e3	0.06540849
8	0x3f3b5867	0.73181766
9	0xbe9ff8f5	-0.31244627
10	0x3e8c75f9	0.27433756
11	0xbe9e646c	-0.3093599
12	0xbe84b46a	-0.25918895
13	0xbdc87374	-0.09787646
14	0xbe035cfd	-0.12828441
15	0xbe0bcabf	-0.1365156
16	0xbe004628	-0.12526762
17	0x3ecb363e	0.3968982
18	0x3b68301d	0.0035429068
19	0x3f38d634	0.7220185
20	0x3f2291d0	0.6350374
21	0xbeba4a82	-0.3638497
22	0x3e4ce8a7	0.20010625
23	0xbf31dbd4	-0.69476056
24	0x3efb9cc4	0.4914304
25	0x3eda2af0	0.42610884
26	0xbe0ec6cc	-0.13943022
27	0xbbb8e155	-0.005642096
28	0x3f16cf9d	0.5891054
29	0xbe7c89e4	-0.24661976
30	0x3e9a442c	0.30130136
31	0xbb879039	-0.0041370657
32	0xbeff5822	-0.49871927
33	0xbf228b80	-0.6349411
34	0x3f14b022	0.5808126
35	0x3e6b90e2	0.23004487
36	0xbedc0e7f	-0.4297981
37	0x3cd34af1	0.02579257
38	0x3f2c9a93	0.6742336
39	0xbe640e8c	-0.22271174
40	0xbf01c35c	-0.5068872
41	0x3f326015	0.6967786
42	0x3e76816b	0.24072807
43	0xbec6d3ef	-0.38833568
44	0xbf02be65	-0.5107177
45	0x3e84012b	0.2578214
46	0xbeb681a8	-0.35645795
47	0x3f08e0ca	0.53468
48	0x3e336dca	0.1752235
49	0xbe105185	-0.14093597
50	0xbceb2d99	-0.028708266
51	0xbe27f847	-0.16403304
52	0x3dfe5ad8	0.12419671
53	0xbe6dae04	-0.23210913
54	0x3f6bb694	0.9207547
55	0xbdd8f445	-0.10593466
56	0xbf21ced4	-0.6320622
57	0x3f02fa48	0.5116315
58	0xbe74760b	-0.23873155
59	0xbe372f2c	-0.17889088
60	0x3e76a761	0.24087287
61	0x3e939184	0.28821957
62	0x3f34f215	0.7068189
63	0xbda468a6	-0.080277726
64	0x3e1a52ec	0.15070695
65	0x3cc27315	0.023736516
66	0x3f523ba1	0.82122236
67	0x3f5c7488	0.8611531
68	0x3f5e10fd	0.8674467
69	0xbe845737	-0.2584779
70	0x3e1e84f9	0.15480413
71	0x3ed4cc91	0.41562322
72	0xbf32ec71	-0.6989203
73	0x3ee97c6b	0.45602736
74	0xbee9a398	-0.45632625
75	0x3ece8d6b	0.40342268
76	0xbef2e19e	-0.47437757
77	0xbebb01bb	-0.36524758
78	0x3f1be108	0.60890245
79	0x3e264653	0.16237764
80	0x3f1e3248	0.61795473
81	0xbeff7c8f	-0.49899718
82	0xbd7859a3	-0.06063236
83	0xbf08f383	-0.5349657
84	0xbe31dceb	-0.1736943
85	0xbed33e22	-0.4125834
86	0x3ef8b5dc	0.48576248
87	0xbf32475f	-0.69640154
88	0x3e84c56e	0.25931877
89	0xbea201fd	-0.31642142
90	0xbe9180e6	-0.28418654
91	0x3e9ee3e7	0.3103325
92	0x3d420c96	0.047375284
93	0x3cb0befa	0.02157544
94	0x3e982e7d	0.29722968
95	0x3ea2b54a	0.31778938
96	0xbe8f606f	-0.2800326
97	0x3ef024d3	0.46903095
98	0xbdf96da6	-0.12179117
99	0x3e9a0fe5	0.30090252
100	0x3ebe690c	0.3718952
101	0xbf0235db	-0.50863427
102	0xbebaa49f	-0.3645372
103	0x3f17ba7d	0.59268934
104	0x3efb5c23	0.49093732
105	0x3f0e018b	0.55471104
106	0x3e32df45	0.17467983
107	0x3e43b165	0.1911064
108	0x3f270a99	0.65250546
109	0x3ed14b87	0.40877935
110	0xbf0cc615	-0.5498975
111	0x3ee8bf81	0.45458606
112	0x3f505fd4	0.8139622
113	0x3ea69464	0.32535088
114	0x3ea4abf7	0.3216245
115	0x3f27f789	0.65612084
116	0xbefbffb2	-0.49218518
117	0x3dcca22a	0.09991868
118	0x3ee57284	0.4481393
119	0x3f01dd75	0.5072854
120	0x3e80d768	0.25164342
121	0xbed04ade	-0.4068212
122	0xbef647e1	-0.48101714
123	0xbec956da	-0.39324075
124	0xbf0776d4	-0.5291569
125	0x3ef0a35e	0.4699964
126	0xbe87dfe5	-0.26538005
127	0xbf083a33	-0.53213805
128	0x3ebf11be	0.37318224
129	0x3eee9512	0.46598107
130	0xbe67d2c4	-0.22638994
131	0xbe77f2ba	-0.24213687
132	0x3e804fba	0.25060827
133	0xbe495702	-0.19662097
134	0xbec9a58d	-0.39384118
135	0x3e245608	0.16048443
136	0xbf065c93	-0.5248501
137	0x3f035f2b	0.5131709
138	0x3e507d90	0.20360398
139	0x3f1578ac	0.58387256
140	0x3ee1be6e	0.440906
141	0xbe784203	-0.24243931
142	0xbe9887e1	-0.29791167
143	0x3f9ff058	1.2495222
144	0x3ea78e99	0.3272598
145	0xbf059a3f	-0.52188486
146	0xbe6ae4a0	-0.22938776
147	0xbe92d53a	-0.28678304
148	0x3f2ddcab	0.6791484
149	0x3f0565fb	0.52108735
150	0x3e8cff21	0.27538398
151	0xbd9e9aa1	-0.07744337
152	0xbe92ca0c	-0.28669775
153	0x3dfa4160	0.122195005
154	0xbee11437	-0.43960735
155	0xbde9dbda	-0.114188865
156	0xbeb26c14	-0.34848082
157	0x3f430468	0.761786
158	0xbf60777b	-0.8768231
159	0xbe3df691	-0.18551089
160	0xbe93f585	-0.28898254
161	0xbe659d4b	-0.22423284
162	0xbe98c06f	-0.29834315
163	0x3d9b49c4	0.07582429
164	0x3f013707	0.5047459
165	0x3f59ad41	0.8502999
166	0xbdefeed3	-0.11715474
167	0x3ed320dc	0.41236007
168	0x3ed9bce3	0.42526922
169	0x3e7a4f14	0.24444228
170	0xbda0047c	-0.07813355
171	0xbb2e6df2	-0.0026615825
172	0xbe92bf18	-0.28661418
173	0x3d961ce9	0.07329733
174	0xbc57ec06	-0.013178831
175	0x3b866c5d	0.0041022734
176	0xbf4c1b17	-0.79728836
177	0xbdb677f5	-0.08909599
178	0x3d0d250b	0.034459155
179	0x3f2365b0	0.6382704
180	0x3ec08435	0.37600866
181	0xbf2b10ae	-0.66822326
182	0x3d52b9a9	0.05144659
183	0xbec6c181	-0.38819507
184	0xbea5aa06	-0.3235628
185	0x3d583c36	0.052791797
186	0xbaf9caf6	-0.001905768
187	0xbe92e05e	-0.28686804
188	0x3ed9c7fb	0.42535385
189	0x3d7ffbfc	0.06249617
190	0x3e985246	0.2975027
191	0x3efdb214	0.49549925
192	0x3e9e6312	0.3093496
193	0xbefbd6dc	-0.49187362
194	0x3ecbf837	0.3983781
195	0xbeef453a	-0.46732503
196	0x3f11a44b	0.56891316
197	0xbdeb0cea	-0.114770725
198	0x3f41ff0b	0.7577979
199	0xbe908161	-0.28223708
200	0x3f3ed1a7	0.74538654
201	0xbdfb76e4	-0.12278536
202	0xbe361f24	-0.17785317
203	0x3e7d3294	0.24726325
204	0xbc86c762	-0.016452495
205	0x3edb00e4	0.42774117
206	0xbe4dabd0	-0.20085073
207	0x3f2c2973	0.67250746
208	0xbd37caa6	-0.044870995
209	0x3f337e11	0.7011424
210	0xbd824f48	-0.06362778
211	0xbe627130	-0.2211349
212	0xbdde9251	-0.108677514
213	0x3f163466	0.58673704
214	0xbe39f5e3	-0.18160205
215	0x3e64311a	0.22284356
216	0x3f1458c6	0.5794796
217	0xbeb511b0	-0.35365057
218	0x3f18b546	0.596516
219	0xbe3af0ce	-0.18255922
220	0xbead0fdb	-0.3380116
221	0xbe49ae74	-0.19695455
222	0x3f28cd46	0.6593822
223	0x3f0ea0ff	0.5571441
224	0x3ec9bc83	0.39401636
225	0xbec91d7a	-0.392803
226	0x3e0683af	0.13136171
227	0xbee2896d	-0.44245473
228	0x3ef0aa2f	0.4700484
229	0x3ef102de	0.470725
230	0x3e8180c5	0.25293556
231	0x3e95205a	0.29126245
232	0xbe67fcf8	-0.22655094
233	0x3e870aac	0.2637533
234	0x3efaee90	0.49010134
235	0xbf0c9789	-0.54918724
236	0xbedaa424	-0.42703354
237	0x3eadf84b	0.33978495
238	0x3c8521d8	0.01625149
239	0x3e17e7b9	0.14834489
240	0xbca79658	-0.020457432
241	0x3ef816ff	0.48455045
242	0x3efff960	0.49994946
243	0x3f07f9c8	0.5311551
244	0xbece66a7	-0.40312693
245	0x3f19979e	0.59996974
246	0x3f23fdfb	0.6405942
247	0x3f364d7d	0.7121199
248	0x3f3de821	0.74182326
249	0x3f2cae23	0.6745321
250	0xbe517484	-0.20454603
251	0xbe026a8e	-0.1273596
252	0xbc57180f	-0.013128295
253	0x3f1b52ee	0.60673416
254	0xbeb81995	-0.35957018
255	0x3ce35f3c	0.027755372

l1.bias f4 [10]
0	0x3f228b1c	0.63493514
1	0x3f094701	0.5362397
2	0x3e92b66f	0.2865481
3	0x3f9e2238	1.2354193
4	0x3f1c15ca	0.6097075
5	0x3f68194d	0.90663606
6	0x3e8163c7	0.25271437
7	0x3f003564	0.5008147
8	0x3eb08296	0.3447463
9	0x3f68ec66	0.90985715

l2.weight f4 [10, 10]
0	0x3f7640db	0.9619271
1	0x3f624ccc	0.8839843
2	0x3f932646	1.1496055
3	0xbedf35e2	-0.43595797
4	0x3e28c450	0.16481137
5	0x3e0b9749	0.1363193
6	0x3f4dfc6a	0.8046328
7	0xbdbfa5b9	-0.09357781
8	0x3fcf41d9	1.619197
9	0x3ed2583b	0.4108294
10	0x3f83042c	1.0235648
11	0xbed16330	-0.40895987
12	0xbeb599b9	-0.35468844
13	0x3f88f8a7	1.0700883
14	0x3e97370d	0.29534188
15	0x3fcf382e	1.618902
16	0xbf9931de	-1.1968343
17	0x3fa0e9a6	1.2571304
18	0xbe1055e1	-0.1409526
19	0x3f5ce63a	0.862888
20	0x3eb6b0d6	0.3568179
21	0xbf82ca00	-1.0217896
22	0x3ed650c1	0.41858485
23	0xbe92365d	-0.285571
24	0x3f35705b	0.70874566
25	0x3f8ff235	1.1245791
26	0x3f83a95e	1.0286062
27	0x3fdaa28f	1.7080859
28	0xbf13757a	-0.5760113
29	0x3f38fcfc	0.72261024
30	0xbf465553	-0.77473944
31	0xbdedd93c	-0.116137
32	0x3f887683	1.0661167
33	0xbcf345ff	-0.029696463
34	0x3f88e3ae	1.0694482
35	0x3e668d02	0.22514728
36	0x3ea76bfc	0.32699573
37	0xbe69a5c1	-0.22817136
38	0xbe980014	-0.2968756
39	0x3fbf975d	1.4968067
40	0x3e292829	0.16519226
41	0x3dacf6fd	0.08445547
42	0xbeaa04fb	-0.33206925
43	0xbda53145	-0.08066038
44	0xbd9169f9	-0.07100291
45	0x3e39ca35	0.18143542
46	0xbea0151f	-0.31266114
47	0xbcee9eb5	-0.029128412
48	0xbe0ea130	-0.13928676
49	0xbe979f2c	-0.29613626
50	0x3ef64f16	0.48107213
51	0x3fc61b5d	1.5477101
52	0x3f4e10ef	0.8049459
53	0x3f74cda2	0.9562627
54	0xbf05b710	-0.52232456
55	0xbf82c460	-1.0216179
56	0xbee428dd	-0.44562426
57	0xbf88627d	-1.0655056
58	0x3f37729f	0.7165927
59	0x3f8ceb46	1.10093
60	0xbefda05f	-0.49536416
61	0x3f30c02f	0.6904325
62	0xbe060f44	-0.13091761
63	0x3faded83	1.3588108
64	0x3f118425	0.5684226
65	0x3f174cb0	0.5910139
66	0x3e3ca342	0.18421653
67	0xbd852bd4	-0.065025
68	0xbf68fea0	-0.91013527
69	0x3f16389c	0.5868013
70	0x3ec1cbd6	0.37850827
71	0x3d2bc130	0.041932285
72	0xbf3d6cb9	-0.7399402
73	0x3f39b1e4	0.72537065
74	0x3ca09d90	0.019606382
75	0xbd7ecbe5	-0.062206168
76	0x3e2489d7	0.16068207
77	0xbf8751d9	-1.0571853
78	0xbe19a2a2	-0.15003446
79	0x3f14e948	0.5816846
80	0xbf182381	-0.59429175
81	0xbf3087fc	-0.68957496
82	0xbdf8035b	-0.12110015
83	0x3f1f78a3	0.6229345
84	0x3f5b6541	0.85701376
85	0xbf8125c9	-1.0089656
86	0x3fe14d23	1.7601665
87	0x3f3c49f0	0.7355032
88	0x3f2bc7e9	0.67101914
89	0xbe56a5b4	-0.20961648
90	0x3e94b994	0.29047835
91	0x3e9f35bd	0.31095687
92	0xbf0b3393	-0.5437557
93	0x3dc51479	0.096230455
94	0x3f504f37	0.8137087
95	0xbd98ae7c	-0.07455155
96	0x3e2dd28f	0.16974853
97	0xbfaa3006	-1.3295906
98	0x3ed3dc67	0.4137909
99	0x3f3c29e6	0.7350143

l2.bias f4 [10]
0	0xbefbae26	-0.49156302
1	0x3f186b4e	0.59538734
2	0x3f0e7363	0.55644816
3	0xbde30893	-0.1108562
4	0xbe2d57c4	-0.16928011
5	0x3f2565cf	0.6460847
6	0x3f3bc29a	0.73343813
7	0xbf06fda3	-0.5273077
8	0xbd5eed46	-0.0544255
9	0x3f3ea68c	0.7447288

l3.weight f4 [16, 10]
0	0xbd50185c	-0.05080448
1	0xbe796479	-0.24354734
2	0x3e5dd3f3	0.21662883
3	0xbe8c628b	-0.27418932
4	0xbdb20441	-0.086922176
5	0xbe4a2e04	-0.19744116
6	0xbefbb0f0	-0.4915843
7	0xc012180b	-2.2827175
8	0xbfa914e1	-1.3209497
9	0x3f3654ac	0.7122295
10	0x3ea62dd9	0.32456854
11	0xbf97aadf	-1.1849021
12	0xbe1481d8	-0.14502656
13	0xbfc817c1	-1.5632249
14	0xbe9525b6	-0.29130334
15	0x3e615792	0.22006062
16	0xbf536998	-0.82583
17	0xbf37958a	-0.71712554
18	0xbda03230	-0.078220725
19	0xbf6d5e6c	-0.927222
20	0xbeb0f67b	-0.3456305
21	0x3ea21e91	0.31663945
22	0x3e742d18	0.23845327
23	0x3f285237	0.6575045
24	0x3d1c516c	0.038163587
25	0xbfa58a34	-1.2932801
26	0xbf355b2e	-0.70842254
27	0xbf3d4b4e	-0.7394303
28	0xbfc080c0	-1.5039291
29	0xbf6d8760	-0.9278469
30	0x3eaf0331	0.34182122
31	0x3e616ddf	0.22014569
32	0xbdf098fb	-0.11747929
33	0xbfdddb6f	-1.7332591
34	0x3d13d815	0.036094744
35	0xbdfb8237	-0.12280696
36	0xbfae474d	-1.3615509
37	0xbf9061b9	-1.1279823
38	0xbfc533ab	-1.5406393
39	0xbfc0bb97	-1.5057248
40	0xbe3310fc	-0.17486948
41	0xbfb62343	-1.4229511
42	0xbfb146dd	-1.3849751
43	0xbdc550c9	-0.09634549
44	0xbdf72fee	-0.12069689
45	0x3cc3845a	0.023866821
46	0x3ea19dcb	0.315657
47	0xbddb46ea	-0.10706885
48	0x3dfae1d5	0.12250105
49	0x3d22ba63	0.039728533
50	0xbf88af5d	-1.0678517
51	0xbe7d7f72	-0.24755648
52	0xbd30118a	-0.042985477
53	0x3d2d840e	0.042362265
54	0x3e0da987	0.13834201
55	0xbf83b9a5	-1.0291029
56	0x3e74b4a1	0.2389703
57	0x3ee84093	0.45361766
58	0x3da38667	0.079846196
59	0x3e84550f	0.25846145
60	0x3e0ff27d	0.14057346
61	0x3d9cfd46	0.076654956
62	0x3e7a2300	0.24427414
63	0xbed5d312	-0.41762596
64	0xbea1cdf2	-0.31602436
65	0xbfe15ac7	-1.7605828
66	0xbfc3da7b	-1.530105
67	0xbeff262c	-0.4983381
68	0xbebf655b	-0.37382016
69	0xbf5f1120	-0.87135506
70	0xbfea854b	-1.8321928
71	0x3f6bcfd3	0.9211399
72	0x3ec8d982	0.39228445
73	0xbf69ee5e	-0.91379344
74	0xbea244f4	-0.31693232
75	0xbfa4861b	-1.2853426
76	0x3f2468a6	0.6422218
77	0xbfc37391	-1.5269643
78	0xbf89858f	-1.0743884
79	0xbe81b3a5	-0.2533237
80	0x3e383e0a	0.17992416
81	0xbff26e7a	-1.8939965
82	0xbedb27c3	-0.42803773
83	0x3f17e08c	0.59327006
84	0xbd527a20	-0.051386
85	0x3df5d8a1	0.12004209
86	0xbf28639a	-0.6577698
87	0xbf88c3eb	-1.068479
88	0xbf16e0b4	-0.5893662
89	0xbdaa5f9b	-0.083190165
90	0xbe9d51e3	-0.30726537
91	0xbf8fe6e3	-1.1242336
92	0xbe881514	-0.2657858
93	0x3ce60f6c	0.028083526
94	0x3df2c0fb	0.11853214
95	0xbfaaba63	-1.3338131
96	0xbe7b28bc	-0.24527258
97	0xbfae69f8	-1.3626089
98	0x3f0aee40	0.5426979
99	0x3ee2235c	0.44167602
100	0xbec03266	-0.3753845
101	0xbf513a88	-0.81729937
102	0xbe77e0b1	-0.24206807
103	0x3e9e907f	0.30969617
104	0x3e1bb23c	0.1520471
105	0x3b47ec94	0.0030506002
106	0x3ebfa75f	0.37432382
107	0xbfd99b02	-1.700043
108	0xbe08e550	-0.13368726
109	0xbf7522e0	-0.9575634
110	0xbfd2d637	-1.6471623
111	0x3b829d08	0.0039860047
112	0xbf13ff48	-0.57811403
113	0x3ebe4608	0.37162805
114	0x3dc64d1c	0.09682676
115	0x3ee9c93c	0.45661342
116	0x3f1acda7	0.6047005
117	0xbd7f273c	-0.062293276
118	0xbfcbffde	-1.593746
119	0x3f10bbae	0.56536376
120	0xbd45c5d5	-0.04828437
121	0x3da88c5f	0.08229899
122	0xbf992d59	-1.1966964
123	0xbfdb22b6	-1.7119968
124	0x3e85a59a	0.26102906
125	0x3eb3c0a0	0.351079
126	0xbeaae31e	-0.33376402
127	0x3f58b6a7	0.84653705
128	0xbf30447d	-0.68854505
129	0xb9f51f3f	-0.00046753322
130	0xbf85ad40	-1.0443497
131	0xbc97b465	-0.018518636
132	0x3f25aa9e	0.64713466
133	0xbfa8ff46	-1.3202903
134	0xbe417623	-0.18892722
135	0xbf100564	-0.56258225
136	0xbf433b11	-0.76262003
137	0xbf3b213a	-0.73097575
138	0x3ef4e1b0	0.47828436
139	0xbf2af2a6	-0.667765
140	0x3ee9ad66	0.45640105
141	0xbf581640	-0.8440895
142	0xbfb53b9d	-1.4158818
143	0xbf086393	-0.5327694
144	0x3e2864a4	0.16444641
145	0x3ec85ce7	0.3913338
146	0xbfa95a1a	-1.3230622
147	0xbfe4eb83	-1.7884372
148	0xbffb87fd	-1.9650875
149	0x3f02a758	0.51036596
150	0x3ded7757	0.11595028
151	0xbf792ec9	-0.97337013
152	0x3ded2b37	0.11580508
153	0x3eb7a308	0.3586657
154	0xbe892e3f	-0.26793095
155	0xbf21f02c	-0.632571
156	0xbf8d3edc	-1.1034808
157	0xbed57344	-0.41689503
158	0xbd9b6d7c	-0.07589242
159	0xbf8d640c	-1.1046157

l3.bias f4 [16]
0	0xbdd22f17	-0.10262888
1	0x3e26aad8	0.16276109
2	0xbe9023de	-0.28152364
3	0xbd378415	-0.044803698
4	0xbe96d1be	-0.29456896
5	0xbedc9e27	-0.4308941
6	0xbe49f65e	-0.19722888
7	0x3f04b6f0	0.5184164
8	0xbe952d27	-0.2913601
9	0xbdb59fb7	-0.08868354
10	0xbe908828	-0.2822888
11	0x3e7dc623	0.24782614
12	0x3df7ba3d	0.12096069
13	0x3eaeb5ab	0.34122977
14	0xbe0d5e24	-0.13805443
15	0xbe9cc65c	-0.30620086
