data.pth (torch, 6271 bytes, 6 tensors)

l1.weight f4 [8, 71]
0	0x3f61aef9	0.8815761
1	0x3f04984d	0.5179489
2	0x3f53a673	0.82675856
3	0x3f6d37f7	0.9266352
4	0x3d66820f	0.056276377
5	0x3f44a2fe	0.76811206
6	0xbe158faa	-0.14605585
7	0xbe3ac300	-0.18238449
8	0x3f86ebac	1.0540671
9	0x3f3777e1	0.71667296
10	0x3f58df87	0.84716076
11	0x3d782111	0.06057841
12	0x3f0aebb2	0.5426589
13	0xbe3d8009	-0.18505873
14	0x3f0b593b	0.5443303
15	0xbec9822a	-0.3935712
16	0xbf9d452c	-1.2286735
17	0xbe850d9f	-0.25986955
18	0xbeef11e7	-0.46693346
19	0x3e5b63f1	0.21424843
20	0xbe2f1583	-0.1709805
21	0x3e13dfaa	0.1444079
22	0x3f186231	0.5952483
23	0xbf16e205	-0.5893863
24	0xbe0d40fe	-0.13794324
25	0x3ef70a04	0.4824983
26	0x3ea70f41	0.32628825
27	0xbda1afb6	-0.07894842
28	0xbe903a01	-0.28169253
29	0x3e012f1f	0.12615632
30	0x3f48f7b8	0.7850299
31	0x3f0d767d	0.55258924
32	0xbd9e6c7d	-0.07735536
33	0xbd796814	-0.060890272
34	0xbf4a7f18	-0.7910018
35	0xbe162d89	-0.14665808
36	0x3e2ac587	0.16676913
37	0xbed1cb19	-0.40975264
38	0x3e101c5c	0.14073318
39	0x3f714e8a	0.94260466
40	0xbdc4427b	-0.09582993
41	0x3e1b3fc8	0.1516105
42	0xbecf80f2	-0.40528065
43	0xbb9efdb4	-0.004852021
44	0xbdeb7d8b	-0.11498555
45	0x3f510243	0.81644076
46	0x3e205bf3	0.15660076
47	0x3e109f7b	0.14123337
48	0x3ed8e28e	0.42360348
49	0xbe991157	-0.29896042
50	0x3e8ff061	0.28113082
51	0x3f20df0b	0.62840337
52	0x3e9f061e	0.31059355
53	0x3f627856	0.8846487
54	0x3f09b055	0.53784686
55	0xbe4c45b3	-0.19948463
56	0xbe708578	-0.23488414
57	0xbec13f1d	-0.37743464
58	0xbe694008	-0.22778332
59	0xbe502999	-0.20328368
60	0x3f0bd3f7	0.5462031
61	0xbc8c6e71	-0.017142506
62	0x3e453b1d	0.19260831
63	0x3e94605e	0.28979772
64	0xbe8191ba	-0.25306493
65	0x3eb85df2	0.36009175
66	0xbeaba225	-0.33522144
67	0x3f1dcc9e	0.61640346
68	0xbe3123e9	-0.17298855
69	0x3f0b6166	0.54445493
70	0x3efe1823	0.4962779
71	0xbf364bb9	-0.71209294
72	0x3f042481	0.516182
73	0x3e8f9840	0.28045845
74	0xbe8622c4	-0.261984
75	0xbce459f5	-0.027874926
76	0x3e522b58	0.20524347
77	0x3f31a022	0.6938497
78	0xbef52762	-0.4788161
79	0xbb83cf4e	-0.0040225154
80	0xbee1af54	-0.44079077
81	0x3e231024	0.15924126
82	0x3eeee1bd	0.466566
83	0x3f514c13	0.81756705
84	0x3e8b7291	0.27235845
85	0x3f4a4b07	0.7902073
86	0xbda1dcb7	-0.07903426
87	0x3ed0e1c1	0.40797237
88	0x3e0a47b3	0.13503914
89	0x3ec43976	0.3832509
90	0x3ef88c9c	0.48544776
91	0xbe06da14	-0.13169128
92	0x3f030d4f	0.5119218
93	0x3ec55d4c	0.38547742
94	0xbf32a104	-0.6977694
95	0x3dc1f281	0.09470082
96	0x3e9a0e95	0.3008925
97	0x3dd00af9	0.10158343
98	0xbe2a5980	-0.16635704
99	0x3d87dbe7	0.0663374
100	0xbe7f4890	-0.24930024
101	0x3ddb4dba	0.107081845
102	0x3de594ba	0.11210008
103	0xbf015cdd	-0.50532323
104	0xbf0157d8	-0.50524664
105	0x3ef85732	0.48504025
106	0x3f29e1f8	0.66360426
107	0x3f26103d	0.6486853
108	0xbecde28a	-0.40211898
109	0xbccc8e0c	-0.024970077
110	0xbf0003f4	-0.5000603
111	0xbf015c56	-0.5053152
112	0x3ec13d0f	0.37741897
113	0xbf160ede	-0.58616436
114	0xbe82e79a	-0.25567323
115	0xbf015785	-0.5052417
116	0x3e7a79b2	0.24460486
117	0x3f358dbb	0.7091939
118	0x3eb7e89a	0.35919648
119	0xbeae9d36	-0.34104317
120	0xbeac7fff	-0.33691403
121	0x3e329523	0.17439704
122	0x3f47dfcb	0.78075856
123	0xbe91870d	-0.28423348
124	0xbf11a51e	-0.56892574
125	0x3f47ea05	0.7809146
126	0x3e51a9b8	0.20474899
127	0x3f13d555	0.57747394
128	0xbd1ffee0	-0.039061427
129	0xbc0e9379	-0.008702152
130	0x3e9ac3dc	0.30227554
131	0x3d815be8	0.06316358
132	0xbdf797ed	-0.120895244
133	0x3f0cc959	0.5499473
134	0x3e152093	0.14563207
135	0xbf0eb9f7	-0.5575251
136	0x3eb67c59	0.35641745
137	0x3e1d881a	0.1538395
138	0x3f309934	0.6898377
139	0x3e131b64	0.14365917
140	0xbf0c87d1	-0.5489474
141	0x3e385238	0.18000114
142	0x3eaf427a	0.34230405
143	0x3f47374d	0.7781876
144	0x3d263432	0.04057712
145	0x3df1d3bc	0.11807963
146	0x3f17c40b	0.5928351
147	0xbf0db277	-0.5535044
148	0xbf6364f0	-0.88825893
149	0x3f50505d	0.81372625
150	0x3e770b33	0.24125366
151	0x3daa736b	0.083227955
152	0xbf0db96b	-0.5536105
153	0xbcfb0e25	-0.030646393
154	0xbeb5e4f9	-0.35526255
155	0xbdbdf691	-0.092755444
156	0xbe57d139	-0.21075906
157	0x3f046058	0.5170951
158	0xbf1dd841	-0.616581
159	0xbe8264c6	-0.2546751
160	0xbdd3b4f5	-0.10337249
161	0xbf2f9802	-0.6859132
162	0xbe1d9dcd	-0.15392227
163	0xbc0e1a43	-0.0086732535
164	0x3f0a313d	0.5398138
165	0x3f0960eb	0.5366351
166	0xbe2fc192	-0.17163685
167	0xbe6834cc	-0.2267639
168	0x3f17b076	0.59253633
169	0xbe5139c1	-0.20432188
170	0xbdd6755a	-0.10471602
171	0x3ee65314	0.4498526
172	0xbf0c8810	-0.54895115
173	0x3ee0e883	0.43927392
174	0x3f25c377	0.6475138
175	0x3f1f00d3	0.6211063
176	0xbf384ce5	-0.7199233
177	0xbe18a9c3	-0.14908509
178	0xbd33341d	-0.04375087
179	0x3f42bf4a	0.76073134
180	0x3ed994c0	0.424963
181	0x3ef7010f	0.48242995
182	0x3f1c3109	0.6101232
183	0x3f761415	0.9612439
184	0x3e81c360	0.25344372
185	0x3ef565b8	0.47929168
186	0x3f21c700	0.63194275
187	0xbf0db67c	-0.55356574
188	0x3e54ac0d	0.20768757
189	0xbdedd940	-0.11613703
190	0x3f49f999	0.7889648
191	0x3f0beeb4	0.5466111
192	0x3e925483	0.28580102
193	0xbe926a49	-0.28596714
194	0xbe9e2ccc	-0.30893552
195	0x3ed58365	0.4170181
196	0x3f015940	0.5052681
197	0xbe305b68	-0.17222369
198	0xbf57c2de	-0.8428172
199	0xbdd91b66	-0.10600929
200	0x3f11c362	0.56938756
201	0xbd931d11	-0.07183278
202	0xbe8d1e9c	-0.27562416
203	0xbe7e7f5d	-0.24853273
204	0xbf2f2a53	-0.68423957
205	0x3e5aca1d	0.21366163
206	0x3eb57b85	0.354458
207	0x3ea77f26	0.32714194
208	0xbe987d20	-0.29782963
209	0x3eb80466	0.35940856
210	0xbe78a41f	-0.24281357
211	0xbd873dfe	-0.06603621
212	0xbe8e1e12	-0.27757317
213	0xbf138e24	-0.57638764
214	0xbef90fa8	-0.48644757
215	0xbec51b4a	-0.38497382
216	0xbef0d737	-0.47039196
217	0xbee48fb8	-0.446409
218	0x3d9e756a	0.07737239
219	0xbe85a94b	-0.26105723
220	0x3f359e5b	0.70944756
221	0xbf2744b9	-0.6533924
222	0xbef7b0f1	-0.48377183
223	0x3d87f364	0.0663822
224	0x3d116868	0.03549996
225	0xbeca6adc	-0.39534652
226	0x3e8a5cb9	0.27023867
227	0xbf0ec2ec	-0.5576618
228	0x3eaf324f	0.3421807
229	0x3f12f401	0.5740357
230	0x3e8a43b6	0.27004784
231	0x3e9b4a38	0.30330062
232	0xbea36b21	-0.3191767
233	0x3ec66eec	0.38756502
234	0x3d2825b8	0.041051596
235	0xbebddc30	-0.37082052
236	0x3f7ecb34	0.99528813
237	0x3e85248a	0.2600444
238	0xbed8ecc2	-0.42368132
239	0xbe21bae4	-0.1579395
240	0xbe8b0d6a	-0.27158672
241	0x3ec96f18	0.3934257
242	0x3f1f5e97	0.6225371
243	0x3d4176b3	0.04723234
244	0xbeeb1bb6	-0.4591958
245	0x3f401e4d	0.75046235
246	0x3f486c4e	0.7829026
247	0x3f20e3b3	0.6284744
248	0x3e8ed6e5	0.27898327
249	0x3e70b07d	0.23504825
250	0x3f25e0d1	0.6479617
251	0xbd838e37	-0.0642361
252	0xbee77c22	-0.45211893
253	0x3f3d7418	0.7400527
254	0xbf25d80d	-0.6478279
255	0xbd9b8d26	-0.07595281

l1.bias f4 [8]
0	0x3f4e9c59	0.8070732
1	0x3f01598f	0.5052728
2	0x3f0db1e8	0.5534959
3	0x3f6247f8	0.88391066
4	0x3ece3524	0.40274918
5	0x3f11824d	0.5683945
6	0x3fa06572	1.2530959
7	0x3f069806	0.5257572

l2.weight f4 [8, 8]
0	0x3fc9ecb4	1.5775361
1	0x3f6dcbf7	0.9288935
2	0xbe0aa9c1	-0.13541318
3	0xbf9205bd	-1.1408001
4	0xbed9615a	-0.42457086
5	0x3df189f9	0.11793894
6	0x3e49d8e2	0.1971164
7	0x3f2e93cf	0.6819429
8	0xbf33eb1b	-0.7028062
9	0xbd030009	-0.031982455
10	0x3fbeaec7	1.4897088
11	0x3fa9db69	1.3270084
12	0x3d0a598d	0.03377681
13	0x3faf2226	1.3682296
14	0x3e4b020c	0.19825
15	0xbe513131	-0.20428921
16	0xbf307d8c	-0.6894157
17	0x3f51600f	0.817872
18	0xbf9bd93e	-1.2175672
19	0x3fb114f0	1.3834515
20	0x3f137175	0.57594997
21	0x3f042da7	0.5163216
22	0x3fabd600	1.3424683
23	0x3c004798	0.007829569
24	0x3e4a2c6b	0.19743507
25	0x3fa6a5b2	1.3019316
26	0xbd2718e1	-0.04079521
27	0xbe0e5542	-0.13899711
28	0x3fcb83ed	1.5899636
29	0x3ef03a56	0.46919507
30	0x3f04f9e9	0.5194383
31	0xbf880ff3	-1.0629867
32	0x3f89d2e1	1.076748
33	0xbebf160e	-0.37321514
34	0x3efa3d70	0.48874998
35	0x3f339c7d	0.7016066
36	0xbfa38296	-1.2774227
37	0xbe220dc7	-0.15825568
38	0x3fa09e1f	1.2548255
39	0x3ea6bc69	0.3256562
40	0x3d70fcc7	0.058834817
41	0x3f439c31	0.76410204
42	0xbf1a6da1	-0.6032353
43	0x3d58a561	0.052892093
44	0x3f80419f	1.0020026
45	0xbeba9741	-0.36443523
46	0x3f438cc9	0.76386696
47	0x3ff4cf39	1.9125739
48	0x3f47a266	0.77982175
49	0x3dd43f05	0.103635825
50	0x3f451b76	0.7699503
51	0xbe5dc070	-0.2165544
52	0x3ed01f79	0.40649012
53	0x3f9a95a4	1.2076917
54	0xbf8c1ebf	-1.0946883
55	0x3f74edc8	0.95675325
56	0x3f4fd929	0.81190735
57	0xbf1199d8	-0.5687537
58	0x3fc557eb	1.5417455
59	0x3e9e69f3	0.30940208
60	0xbf1bc726	-0.6085075
61	0x3f4cced3	0.8000309
62	0xbee7bd75	-0.45261732
63	0xbd3271ef	-0.043565687

l2.bias f4 [8]
0	0x3edfa5a4	0.4368106
1	0x3de4560c	0.11149225
2	0x3e10cb08	0.1413995
3	0xbca582ad	-0.020203913
4	0x3fa29cd6	1.2704113
5	0xbe91e12d	-0.28492108
6	0xbefff5aa	-0.49992114
7	0xbe74fe99	-0.23925246

l3.weight f4 [16, 8]
0	0xbde09e3e	-0.10967682
1	0x3debfb2e	0.11522518
2	0xbe49aac4	-0.19694048
3	0xbe1257f1	-0.1429136
4	0x3c9f1520	0.019419253
5	0x3cabdf46	0.020980489
6	0xbe5bca32	-0.2146385
7	0xbe025068	-0.12725985
8	0xbdf96b2d	-0.12178645
9	0x3ea7ff57	0.32811996
10	0xbff0c069	-1.8808719
11	0xbfb13cb3	-1.3846649
12	0x3f831d68	1.0243349
13	0xbee782f8	-0.4521711
14	0xbf1f771b	-0.62291116
15	0xbd568968	-0.052377135
16	0x3d865683	0.065594696
17	0xbe5bb8c2	-0.21457198
18	0xbfa09eac	-1.2548423
19	0x3e718f44	0.23589808
20	0xbf9cfa66	-1.2263916
21	0xbc31c18d	-0.010849369
22	0x3f0670e2	0.52515996
23	0x3d7b4ba0	0.06135142
24	0x3f2c3223	0.67264
25	0xbfd80d66	-1.6879089
26	0xbfb3ab76	-1.4036701
27	0x3ec95992	0.3932615
28	0x3f15d757	0.5853171
29	0xbf5b954c	-0.85774684
30	0xbeaf2bec	-0.34213197
31	0x3cc12c7d	0.023580784
32	0x3ed688da	0.41901284
33	0xbfa081b9	-1.2539588
34	0xbfaa22c4	-1.329186
35	0xbf802865	-1.0012327
36	0xbd741de2	-0.05959881
37	0x3ef0d01d	0.47033778
38	0x3d970f7b	0.073759995
39	0xbdae0a25	-0.08498029
40	0xbfb06538	-1.378089
41	0xbea89d24	-0.3293239
42	0x3f0bf03d	0.5466345
43	0x3e4952a6	0.19660434
44	0xbfac563b	-1.3463815
45	0x3f23634f	0.6382341
46	0xbf2552e5	-0.6457961
47	0xbfb54348	-1.4161158
48	0x3efb1a12	0.49043328
49	0xbf9bad34	-1.2162232
50	0xbf19ffb7	-0.60155815
51	0xbccd8d7a	-0.025091875
52	0xbf75cb2a	-0.9601313
53	0x3e7ea574	0.24867803
54	0x3ee84d0b	0.4537128
55	0xbff9420b	-1.947328
56	0x3e8e49db	0.27790722
57	0xbf98f320	-1.1949196
58	0x3e3d3cad	0.18480177
59	0xbf80c729	-1.0060779
60	0x3f855bd2	1.0418646
61	0x3db22692	0.08698763
62	0xbf503d01	-0.81343085
63	0xc00aae57	-2.1668909
64	0xbf869967	-1.0515565
65	0x3ee51c8e	0.44748348
66	0xbee5784d	-0.44818345
67	0xbfa1dfcc	-1.2646422
68	0xbd5f90de	-0.054581515
69	0xbe8ff2e1	-0.2811499
70	0x3ed88328	0.42287564
71	0x3eadf503	0.33975992
72	0x3e8b0ee9	0.27159813
73	0xbf7cad7c	-0.98702216
74	0x3de5c53d	0.11219261
75	0x3f180cdc	0.5939462
76	0xbffffb74	-1.9998612
77	0xbd14c348	-0.036319047
78	0xbef84ee1	-0.4849768
79	0xbfa0fab9	-1.2576514
80	0xbf828c63	-1.0199093
81	0x3f030cbf	0.51191324
82	0x3e79c531	0.24391629
83	0x3e5ad24d	0.21369286
84	0xbfbb8fbf	-1.4653243
85	0xbe93920c	-0.28822362
86	0x3ebf5725	0.37371174
87	0xbf59c0ab	-0.85059613
88	0xc000fd63	-2.0154655
89	0x3f00da0b	0.5033271
90	0x3e5ca98b	0.2154905
91	0xbe136155	-0.14392598
92	0x3f8aad7a	1.0834191
93	0xbfded675	-1.7409197
94	0xbf80005f	-1.0000113
95	0x3e434e35	0.19072802
96	0xbfb380eb	-1.4023718
97	0x3ecd3c81	0.40085223
98	0x3f456e0e	0.77121055
99	0x3e462294	0.19349128
100	0x3ea96646	0.3308584
101	0xbf12b4da	-0.5730721
102	0xbf842ffc	-1.0327144
103	0xc001013d	-2.0157006
104	0x3e15d85c	0.14633316
105	0xbe8242ab	-0.2544149
106	0xbfa2ad37	-1.2709111
107	0xbf4c838e	-0.79888237
108	0x3ea5d5aa	0.32389575
109	0xbfccb839	-1.599372
110	0x3edd4637	0.43217632
111	0x3f04a3c0	0.5181236
112	0xbe9b40d7	-0.30322906
113	0x3eb619d4	0.3556658
114	0xbfc09ac6	-1.5047233
115	0x3e0610a5	0.13092287
116	0xbea03e2d	-0.31297436
117	0xbfc61d5a	-1.5477707
118	0x3eaee4be	0.3415889
119	0x3ec8ad1e	0.39194578
120	0xbe7b3232	-0.24530867
121	0xbff45995	-1.9089838
122	0x3e4f1fdb	0.20226996
123	0x3eab0552	0.33402497
124	0xbed8dd8f	-0.42356536
125	0x3f0973a9	0.5369211
126	0xbfbd874f	-1.4806918
127	0xbfb935b6	-1.4469516

l3.bias f4 [16]
0	0xbeb3f298	-0.35146022
1	0x3f085f41	0.53270346
2	0xbee2ede7	-0.4432213
3	0x3e3f1d28	0.18663466
4	0xbdb246d1	-0.087049134
5	0xbe367ede	-0.17821833
6	0xbe7704f8	-0.24122989
7	0x3ecc39d5	0.39887872
8	0xbd1a8a9b	-0.03772984
9	0x3dc53be8	0.09630567
10	0xbebc8ff7	-0.36828586
11	0x3f1439e7	0.5790085
12	0xbdf8d680	-0.12150288
13	0xbe769c72	-0.24083117
14	0xbd306b86	-0.043071292
15	0x3e782c19	0.24235572
